…
    (stft): Stft(n_fft=2048, win_length=1200, hop_length=300, center=True, normalized=False, onesided=True)
    (logmel): LogMel(sr=24000, n_fft=2048, n_mels=80, fmin=80, fmax=7600, htk=False)
  )
  (score_feats_extract): FrameScoreFeats(win_length=1200, hop_length=300, center=True, )
  (durations_extract): FrameScoreFeats(win_length=1200, hop_length=300, center=True, )
  (tempo_extract): FrameScoreFeats(win_length=1200, hop_length=300, center=True, )
  (normalize): GlobalMVN(stats_file=exp/svs_stats_raw_phn_none/train/feats_stats.npz, norm_means=True, norm_vars=True)
  (svs): GLU_Transformer(
    (phone_encoder): GLUEncoder(
      (emb_phone): Embedding(36, 256, padding_idx=0)
      (fc_1): Linear(in_features=256, out_features=256, bias=True)
      (GLU_list): ModuleList(
        (0): GLU(
          (linear): Linear(in_features=256, out_features=256, bias=True)
          (cnn): StackedCNN(
            (layers): ModuleList(
              (0): GatedConv(
                (conv): Conv2d(256, 512, kernel_size=(3, 1), stride=(1, 1), padding=(1, 0))
                (dropout): Dropout(p=0.1, inplace=False)
              )
              (1): GatedConv(
                (conv): Conv2d(256, 512, kernel_size=(3, 1), stride=(1, 1), padding=(1, 0))
                (dropout): Dropout(p=0.1, inplace=False)
              )
              (2): GatedConv(
                (conv): Conv2d(256, 512, kernel_size=(3, 1), stride=(1, 1), padding=(1, 0))
                (dropout): Dropout(p=0.1, inplace=False)
              )
            )
          )
        )
        (1): GLU(
          (linear): Linear(in_features=256, out_features=256, bias=True)
          (cnn): StackedCNN(
            (layers): ModuleList(
              (0): GatedConv(
                (conv): Conv2d(256, 512, kernel_size=(3, 1), stride=(1, 1), padding=(1, 0))
                (dropout): Dropout(p=0.1, inplace=False)
              )
              (1): GatedConv(
                (conv): Conv2d(256, 512, kernel_size=(3, 1), stride=(1, 1), padding=(1, 0))
                (dropout): Dropout(p=0.1, inplace=False)
              )
              (2): GatedConv(
                (conv): Conv2d(256, 512, kernel_size=(3, 1), stride=(1, 1), padding=(1, 0))
                (dropout): Dropout(p=0.1, inplace=False)
              )
            )
          )
        )
        (2): GLU(
          (linear): Linear(in_features=256, out_features=256, bias=True)
          (cnn): StackedCNN(
            (layers): ModuleList(
              (0): GatedConv(
                (conv): Conv2d(256, 512, kernel_size=(3, 1), stride=(1, 1), padding=(1, 0))
                (dropout): Dropout(p=0.1, inplace=False)
              )
              (1): GatedConv(
                (conv): Conv2d(256, 512, kernel_size=(3, 1), stride=(1, 1), padding=(1, 0))
                (dropout): Dropout(p=0.1, inplace=False)
              )
              (2): GatedConv(
                (conv): Conv2d(256, 512, kernel_size=(3, 1), stride=(1, 1), padding=(1, 0))
                (dropout): Dropout(p=0.1, inplace=False)
              )
            )
          )
        )
      )
      (fc_2): Linear(in_features=256, out_features=256, bias=True)
    )
    (midi_encoder_input_layer): Embedding(129, 256, padding_idx=0)
    (tempo_encoder_input_layer): Embedding(300, 256, padding_idx=0)
    (projection): Linear(in_features=256, out_features=256, bias=True)
    (enc_postnet): Encoder_Postnet(
      (fc_pos): Linear(in_features=256, out_features=256, bias=True)
      (pos): PositionalEncoding(
        (dropout): Dropout(p=0.1, inplace=False)
      )
    )
    (decoder): GLUDecoder(
      (input_norm): LayerNorm((256,), eps=1e-05, elementwise_affine=True)
      (decoder): TransformerEncoder(
        (layers): ModuleList(
          (0): TransformerGLULayer(
            (self_attn): Attention(
              (key): Linear(in_features=256, out_features=256, bias=False)
              (value): Linear(in_features=256, out_features=256, bias=False)
              (query): Linear(in_features=256, out_features=256, bias=False)
              (multihead): MultiheadAttention(
                (attn_dropout): Dropout(p=0.1, inplace=False)
              )
              (residual_dropout): Dropout(p=0.1, inplace=False)
              (final_linear): Linear(in_features=512, out_features=256, bias=True)
              (layer_norm_1): LayerNorm((256,), eps=1e-05, elementwise_affine=True)
            )
            (GLU): GLU(
              (linear): Linear(in_features=256, out_features=256, bias=True)
              (cnn): StackedCNN(
                (layers): ModuleList(
                  (0): GatedConv(
                    (conv): Conv2d(256, 512, kernel_size=(3, 1), stride=(1, 1), padding=(1, 0))
                    (dropout): Dropout(p=0.1, inplace=False)
                  )
                )
              )
            )
            (norm1): LayerNorm((256,), eps=1e-05, elementwise_affine=True)
            (norm2): LayerNorm((256,), eps=1e-05, elementwise_affine=True)
            (dropout1): Dropout(p=0.1, inplace=False)
            (dropout2): Dropout(p=0.1, inplace=False)
          )
          (1): TransformerGLULayer(
            (self_attn): Attention(
              (key): Linear(in_features=256, out_features=256, bias=False)
              (value): Linear(in_features=256, out_features=256, bias=False)
              (query): Linear(in_features=256, out_features=256, bias=False)
              (multihead): MultiheadAttention(
                (attn_dropout): Dropout(p=0.1, inplace=False)
              )
              (residual_dropout): Dropout(p=0.1, inplace=False)
              (final_linear): Linear(in_features=512, out_features=256, bias=True)
              (layer_norm_1): LayerNorm((256,), eps=1e-05, elementwise_affine=True)
            )
            (GLU): GLU(
              (linear): Linear(in_features=256, out_features=256, bias=True)
              (cnn): StackedCNN(
                (layers): ModuleList(
                  (0): GatedConv(
                    (conv): Conv2d(256, 512, kernel_size=(3, 1), stride=(1, 1), padding=(1, 0))
                    (dropout): Dropout(p=0.1, inplace=False)
                  )
                )
              )
            )
            (norm1): LayerNorm((256,), eps=1e-05, elementwise_affine=True)
            (norm2): LayerNorm((256,), eps=1e-05, elementwise_affine=True)
            (dropout1): Dropout(p=0.1, inplace=False)
            (dropout2): Dropout(p=0.1, inplace=False)
          )
          (2): TransformerGLULayer(
            (self_attn): Attention(
              (key): Linear(in_features=256, out_features=256, bias=False)
              (value): Linear(in_features=256, out_features=256, bias=False)
              (query): Linear(in_features=256, out_features=256, bias=False)
              (multihead): MultiheadAttention(
                (attn_dropout): Dropout(p=0.1, inplace=False)
              )
              (residual_dropout): Dropout(p=0.1, inplace=False)
              (final_linear): Linear(in_features=512, out_features=256, bias=True)
              (layer_norm_1): LayerNorm((256,), eps=1e-05, elementwise_affine=True)
            )
            (GLU): GLU(
              (linear): Linear(in_features=256, out_features=256, bias=True)
              (cnn): StackedCNN(
                (layers): ModuleList(
                  (0): GatedConv(
                    (conv): Conv2d(256, 512, kernel_size=(3, 1), stride=(1, 1), padding=(1, 0))
                    (dropout): Dropout(p=0.1, inplace=False)
                  )
                )
              )
            )
            (norm1): LayerNorm((256,), eps=1e-05, elementwise_affine=True)
            (norm2): LayerNorm((256,), eps=1e-05, elementwise_affine=True)
            (dropout1): Dropout(p=0.1, inplace=False)
            (dropout2): Dropout(p=0.1, inplace=False)
          )
          (3): TransformerGLULayer(
            (self_attn): Attention(
              (key): Linear(in_features=256, out_features=256, bias=False)
              (value): Linear(in_features=256, out_features=256, bias=False)
              (query): Linear(in_features=256, out_features=256, bias=False)
              (multihead): MultiheadAttention(
                (attn_dropout): Dropout(p=0.1, inplace=False)
              )
              (residual_dropout): Dropout(p=0.1, inplace=False)
              (final_linear): Linear(in_features=512, out_features=256, bias=True)
              (layer_norm_1): LayerNorm((256,), eps=1e-05, elementwise_affine=True)
            )
            (GLU): GLU(
              (linear): Linear(in_features=256, out_features=256, bias=True)
              (cnn): StackedCNN(
                (layers): ModuleList(
                  (0): GatedConv(
                    (conv): Conv2d(256, 512, kernel_size=(3, 1), stride=(1, 1), padding=(1, 0))
                    (dropout): Dropout(p=0.1, inplace=False)
                  )
                )
              )
            )
            (norm1): LayerNorm((256,), eps=1e-05, elementwise_affine=True)
            (norm2): LayerNorm((256,), eps=1e-05, elementwise_affine=True)
            (dropout1): Dropout(p=0.1, inplace=False)
            (dropout2): Dropout(p=0.1, inplace=False)
          )
          (4): TransformerGLULayer(
            (self_attn): Attention(
              (key): Linear(in_features=256, out_features=256, bias=False)
              (value): Linear(in_features=256, out_features=256, bias=False)
              (query): Linear(in_features=256, out_features=256, bias=False)
              (multihead): MultiheadAttention(
                (attn_dropout): Dropout(p=0.1, inplace=False)
              )
              (residual_dropout): Dropout(p=0.1, inplace=False)
              (final_linear): Linear(in_features=512, out_features=256, bias=True)
              (layer_norm_1): LayerNorm((256,), eps=1e-05, elementwise_affine=True)
            )
            (GLU): GLU(
              (linear): Linear(in_features=256, out_features=256, bias=True)
              (cnn): StackedCNN(
                (layers): ModuleList(
                  (0): GatedConv(
                    (conv): Conv2d(256, 512, kernel_size=(3, 1), stride=(1, 1), padding=(1, 0))
                    (dropout): Dropout(p=0.1, inplace=False)
                  )
                )
              )
            )
            (norm1): LayerNorm((256,), eps=1e-05, elementwise_affine=True)
            (norm2): LayerNorm((256,), eps=1e-05, elementwise_affine=True)
            (dropout1): Dropout(p=0.1, inplace=False)
            (dropout2): Dropout(p=0.1, inplace=False)
          )
          (5): TransformerGLULayer(
            (self_attn): Attention(
              (key): Linear(in_features=256, out_features=256, bias=False)
              (value): Linear(in_features=256, out_features=256, bias=False)
              (query): Linear(in_features=256, out_features=256, bias=False)
              (multihead): MultiheadAttention(
                (attn_dropout): Dropout(p=0.1, inplace=False)
              )
              (residual_dropout): Dropout(p=0.1, inplace=False)
              (final_linear): Linear(in_features=512, out_features=256, bias=True)
              (layer_norm_1): LayerNorm((256,), eps=1e-05, elementwise_affine=True)
            )
            (GLU): GLU(
              (linear): Linear(in_features=256, out_features=256, bias=True)
              (cnn): StackedCNN(
                (layers): ModuleList(
                  (0): GatedConv(
                    (conv): Conv2d(256, 512, kernel_size=(3, 1), stride=(1, 1), padding=(1, 0))
                    (dropout): Dropout(p=0.1, inplace=False)
                  )
                )
              )
            )
            (norm1): LayerNorm((256,), eps=1e-05, elementwise_affine=True)
            (norm2): LayerNorm((256,), eps=1e-05, elementwise_affine=True)
            (dropout1): Dropout(p=0.1, inplace=False)
            (dropout2): Dropout(p=0.1, inplace=False)
          )
        )
      )
      (output_fc): Linear(in_features=256, out_features=80, bias=True)
    )
    (postnet): Postnet(
      (postnet): ModuleList(
        (0): Sequential(
          (0): Conv1d(80, 256, kernel_size=(5,), stride=(1,), padding=(2,), bias=False)
          (1): BatchNorm1d(256, eps=1e-05, momentum=0.1, affine=True, track_running_stats=True)
          (2): Tanh()
          (3): Dropout(p=0.5, inplace=False)
        )
        (1): Sequential(
          (0): Conv1d(256, 256, kernel_size=(5,), stride=(1,), padding=(2,), bias=False)
          (1): BatchNorm1d(256, eps=1e-05, momentum=0.1, affine=True, track_running_stats=True)
          (2): Tanh()
          (3): Dropout(p=0.5, inplace=False)
        )
        (2): Sequential(
          (0): Conv1d(256, 256, kernel_size=(5,), stride=(1,), padding=(2,), bias=False)
          (1): BatchNorm1d(256, eps=1e-05, momentum=0.1, affine=True, track_running_stats=True)
          (2): Tanh()
          (3): Dropout(p=0.5, inplace=False)
        )
        (3): Sequential(
          (0): Conv1d(256, 256, kernel_size=(5,), stride=(1,), padding=(2,), bias=False)
          (1): BatchNorm1d(256, eps=1e-05, momentum=0.1, affine=True, track_running_stats=True)
          (2): Tanh()
          (3): Dropout(p=0.5, inplace=False)
        )
        (4): Sequential(
          (0): Conv1d(256, 80, kernel_size=(5,), stride=(1,), padding=(2,), bias=False)
          (1): BatchNorm1d(80, eps=1e-05, momentum=0.1, affine=True, track_running_stats=True)
          (2): Dropout(p=0.5, inplace=False)
        )
      )
    )
    (criterion): NaiveRNNLoss(
      (l1_criterion): L1Loss()
      (mse_criterion): MSELoss()
    )
  )
)

Model summary:
    Class Name: MuskitSVSModel
    Total Number of model parameters: 10.07 M
    Number of trainable parameters: 10.07 M (100.0%)
    Size: 40.27 MB
…
